…
m_reg_refine=3, eval=False, inference_size=None, count_time=False, save_vis_disp=False, save_dir=None, middlebury_resolution='F', submission=False, eth_submission_mode='train', middlebury_submission_mode='training', output_path='output', summary_freq=100, save_ckpt_freq=1000, val_freq=10000, save_latest_ckpt_freq=1000, num_steps=100000, distributed=False, local_rank=0, launcher='pytorch', gpu_ids=0, inference_dir=None, inference_dir_left=None, inference_dir_right=None, pred_bidir_disp=False, pred_right_disp=False, save_pfm_disp=False, debug=False)
UniMatch(
  (backbone): CNNEncoder(
    (conv1): Conv2d(3, 64, kernel_size=(7, 7), stride=(2, 2), padding=(3, 3), bias=False)
    (norm1): InstanceNorm2d(64, eps=1e-05, momentum=0.1, affine=False, track_running_stats=False)
    (relu1): ReLU(inplace=True)
    (layer1): Sequential(
      (0): ResidualBlock(
        (conv1): Conv2d(64, 64, kernel_size=(3, 3), stride=(1, 1), padding=(1, 1), bias=False)
        (conv2): Conv2d(64, 64, kernel_size=(3, 3), stride=(1, 1), padding=(1, 1), bias=False)
        (relu): ReLU(inplace=True)
        (norm1): InstanceNorm2d(64, eps=1e-05, momentum=0.1, affine=False, track_running_stats=False)
        (norm2): InstanceNorm2d(64, eps=1e-05, momentum=0.1, affine=False, track_running_stats=False)
      )
      (1): ResidualBlock(
        (conv1): Conv2d(64, 64, kernel_size=(3, 3), stride=(1, 1), padding=(1, 1), bias=False)
        (conv2): Conv2d(64, 64, kernel_size=(3, 3), stride=(1, 1), padding=(1, 1), bias=False)
        (relu): ReLU(inplace=True)
        (norm1): InstanceNorm2d(64, eps=1e-05, momentum=0.1, affine=False, track_running_stats=False)
        (norm2): InstanceNorm2d(64, eps=1e-05, momentum=0.1, affine=False, track_running_stats=False)
      )
    )
    (layer2): Sequential(
      (0): ResidualBlock(
        (conv1): Conv2d(64, 96, kernel_size=(3, 3), stride=(2, 2), padding=(1, 1), bias=False)
        (conv2): Conv2d(96, 96, kernel_size=(3, 3), stride=(1, 1), padding=(1, 1), bias=False)
        (relu): ReLU(inplace=True)
        (norm1): InstanceNorm2d(96, eps=1e-05, momentum=0.1, affine=False, track_running_stats=False)
        (norm2): InstanceNorm2d(96, eps=1e-05, momentum=0.1, affine=False, track_running_stats=False)
        (norm3): InstanceNorm2d(96, eps=1e-05, momentum=0.1, affine=False, track_running_stats=False)
        (downsample): Sequential(
          (0): Conv2d(64, 96, kernel_size=(1, 1), stride=(2, 2))
          (1): InstanceNorm2d(96, eps=1e-05, momentum=0.1, affine=False, track_running_stats=False)
        )
      )
      (1): ResidualBlock(
        (conv1): Conv2d(96, 96, kernel_size=(3, 3), stride=(1, 1), padding=(1, 1), bias=False)
        (conv2): Conv2d(96, 96, kernel_size=(3, 3), stride=(1, 1), padding=(1, 1), bias=False)
        (relu): ReLU(inplace=True)
        (norm1): InstanceNorm2d(96, eps=1e-05, momentum=0.1, affine=False, track_running_stats=False)
        (norm2): InstanceNorm2d(96, eps=1e-05, momentum=0.1, affine=False, track_running_stats=False)
      )
    )
    (layer3): Sequential(
      (0): ResidualBlock(
        (conv1): Conv2d(96, 128, kernel_size=(3, 3), stride=(1, 1), padding=(1, 1), bias=False)
        (conv2): Conv2d(128, 128, kernel_size=(3, 3), stride=(1, 1), padding=(1, 1), bias=False)
        (relu): ReLU(inplace=True)
        (norm1): InstanceNorm2d(128, eps=1e-05, momentum=0.1, affine=False, track_running_stats=False)
        (norm2): InstanceNorm2d(128, eps=1e-05, momentum=0.1, affine=False, track_running_stats=False)
        (norm3): InstanceNorm2d(128, eps=1e-05, momentum=0.1, affine=False, track_running_stats=False)
        (downsample): Sequential(
          (0): Conv2d(96, 128, kernel_size=(1, 1), stride=(1, 1))
          (1): InstanceNorm2d(128, eps=1e-05, momentum=0.1, affine=False, track_running_stats=False)
        )
      )
      (1): ResidualBlock(
        (conv1): Conv2d(128, 128, kernel_size=(3, 3), stride=(1, 1), padding=(1, 1), bias=False)
        (conv2): Conv2d(128, 128, kernel_size=(3, 3), stride=(1, 1), padding=(1, 1), bias=False)
        (relu): ReLU(inplace=True)
        (norm1): InstanceNorm2d(128, eps=1e-05, momentum=0.1, affine=False, track_running_stats=False)
        (norm2): InstanceNorm2d(128, eps=1e-05, momentum=0.1, affine=False, track_running_stats=False)
      )
    )
    (conv2): Conv2d(128, 128, kernel_size=(1, 1), stride=(1, 1))
    (trident_conv): MultiScaleTridentConv()
  )
  (transformer): FeatureTransformer(
    (layers): ModuleList(
      (0): TransformerBlock(
        (self_attn): TransformerLayer(
          (q_proj): Linear(in_features=128, out_features=128, bias=False)
          (k_proj): Linear(in_features=128, out_features=128, bias=False)
          (v_proj): Linear(in_features=128, out_features=128, bias=False)
          (merge): Linear(in_features=128, out_features=128, bias=False)
          (norm1): LayerNorm((128,), eps=1e-05, elementwise_affine=True)
        )
        (cross_attn_ffn): TransformerLayer(
          (q_proj): Linear(in_features=128, out_features=128, bias=False)
          (k_proj): Linear(in_features=128, out_features=128, bias=False)
          (v_proj): Linear(in_features=128, out_features=128, bias=False)
          (merge): Linear(in_features=128, out_features=128, bias=False)
          (norm1): LayerNorm((128,), eps=1e-05, elementwise_affine=True)
          (mlp): Sequential(
            (0): Linear(in_features=256, out_features=1024, bias=False)
            (1): GELU(approximate='none')
            (2): Linear(in_features=1024, out_features=128, bias=False)
          )
          (norm2): LayerNorm((128,), eps=1e-05, elementwise_affine=True)
        )
      )
      (1): TransformerBlock(
        (self_attn): TransformerLayer(
          (q_proj): Linear(in_features=128, out_features=128, bias=False)
          (k_proj): Linear(in_features=128, out_features=128, bias=False)
          (v_proj): Linear(in_features=128, out_features=128, bias=False)
          (merge): Linear(in_features=128, out_features=128, bias=False)
          (norm1): LayerNorm((128,), eps=1e-05, elementwise_affine=True)
        )
        (cross_attn_ffn): TransformerLayer(
          (q_proj): Linear(in_features=128, out_features=128, bias=False)
          (k_proj): Linear(in_features=128, out_features=128, bias=False)
          (v_proj): Linear(in_features=128, out_features=128, bias=False)
          (merge): Linear(in_features=128, out_features=128, bias=False)
          (norm1): LayerNorm((128,), eps=1e-05, elementwise_affine=True)
          (mlp): Sequential(
            (0): Linear(in_features=256, out_features=1024, bias=False)
            (1): GELU(approximate='none')
            (2): Linear(in_features=1024, out_features=128, bias=False)
          )
          (norm2): LayerNorm((128,), eps=1e-05, elementwise_affine=True)
        )
      )
      (2): TransformerBlock(
        (self_attn): TransformerLayer(
          (q_proj): Linear(in_features=128, out_features=128, bias=False)
          (k_proj): Linear(in_features=128, out_features=128, bias=False)
          (v_proj): Linear(in_features=128, out_features=128, bias=False)
          (merge): Linear(in_features=128, out_features=128, bias=False)
          (norm1): LayerNorm((128,), eps=1e-05, elementwise_affine=True)
        )
        (cross_attn_ffn): TransformerLayer(
          (q_proj): Linear(in_features=128, out_features=128, bias=False)
          (k_proj): Linear(in_features=128, out_features=128, bias=False)
          (v_proj): Linear(in_features=128, out_features=128, bias=False)
          (merge): Linear(in_features=128, out_features=128, bias=False)
          (norm1): LayerNorm((128,), eps=1e-05, elementwise_affine=True)
          (mlp): Sequential(
            (0): Linear(in_features=256, out_features=1024, bias=False)
            (1): GELU(approximate='none')
            (2): Linear(in_features=1024, out_features=128, bias=False)
          )
          (norm2): LayerNorm((128,), eps=1e-05, elementwise_affine=True)
        )
      )
      (3): TransformerBlock(
        (self_attn): TransformerLayer(
          (q_proj): Linear(in_features=128, out_features=128, bias=False)
          (k_proj): Linear(in_features=128, out_features=128, bias=False)
          (v_proj): Linear(in_features=128, out_features=128, bias=False)
          (merge): Linear(in_features=128, out_features=128, bias=False)
          (norm1): LayerNorm((128,), eps=1e-05, elementwise_affine=True)
        )
        (cross_attn_ffn): TransformerLayer(
          (q_proj): Linear(in_features=128, out_features=128, bias=False)
          (k_proj): Linear(in_features=128, out_features=128, bias=False)
          (v_proj): Linear(in_features=128, out_features=128, bias=False)
          (merge): Linear(in_features=128, out_features=128, bias=False)
          (norm1): LayerNorm((128,), eps=1e-05, elementwise_affine=True)
          (mlp): Sequential(
            (0): Linear(in_features=256, out_features=1024, bias=False)
            (1): GELU(approximate='none')
            (2): Linear(in_features=1024, out_features=128, bias=False)
          )
          (norm2): LayerNorm((128,), eps=1e-05, elementwise_affine=True)
        )
      )
      (4): TransformerBlock(
        (self_attn): TransformerLayer(
          (q_proj): Linear(in_features=128, out_features=128, bias=False)
          (k_proj): Linear(in_features=128, out_features=128, bias=False)
          (v_proj): Linear(in_features=128, out_features=128, bias=False)
          (merge): Linear(in_features=128, out_features=128, bias=False)
          (norm1): LayerNorm((128,), eps=1e-05, elementwise_affine=True)
        )
        (cross_attn_ffn): TransformerLayer(
          (q_proj): Linear(in_features=128, out_features=128, bias=False)
          (k_proj): Linear(in_features=128, out_features=128, bias=False)
          (v_proj): Linear(in_features=128, out_features=128, bias=False)
          (merge): Linear(in_features=128, out_features=128, bias=False)
          (norm1): LayerNorm((128,), eps=1e-05, elementwise_affine=True)
          (mlp): Sequential(
            (0): Linear(in_features=256, out_features=1024, bias=False)
            (1): GELU(approximate='none')
            (2): Linear(in_features=1024, out_features=128, bias=False)
          )
          (norm2): LayerNorm((128,), eps=1e-05, elementwise_affine=True)
        )
      )
      (5): TransformerBlock(
        (self_attn): TransformerLayer(
          (q_proj): Linear(in_features=128, out_features=128, bias=False)
          (k_proj): Linear(in_features=128, out_features=128, bias=False)
          (v_proj): Linear(in_features=128, out_features=128, bias=False)
          (merge): Linear(in_features=128, out_features=128, bias=False)
          (norm1): LayerNorm((128,), eps=1e-05, elementwise_affine=True)
        )
        (cross_attn_ffn): TransformerLayer(
          (q_proj): Linear(in_features=128, out_features=128, bias=False)
          (k_proj): Linear(in_features=128, out_features=128, bias=False)
          (v_proj): Linear(in_features=128, out_features=128, bias=False)
          (merge): Linear(in_features=128, out_features=128, bias=False)
          (norm1): LayerNorm((128,), eps=1e-05, elementwise_affine=True)
          (mlp): Sequential(
            (0): Linear(in_features=256, out_features=1024, bias=False)
            (1): GELU(approximate='none')
            (2): Linear(in_features=1024, out_features=128, bias=False)
          )
          (norm2): LayerNorm((128,), eps=1e-05, elementwise_affine=True)
        )
      )
    )
  )
  (feature_flow_attn): SelfAttnPropagation(
    (q_proj): Linear(in_features=128, out_features=128, bias=True)
    (k_proj): Linear(in_features=128, out_features=128, bias=True)
  )
  (refine_proj): Conv2d(128, 256, kernel_size=(1, 1), stride=(1, 1))
  (refine): BasicUpdateBlock(
    (encoder): BasicMotionEncoder(
      (convc1): Conv2d(81, 256, kernel_size=(1, 1), stride=(1, 1))
      (convc2): Conv2d(256, 192, kernel_size=(3, 3), stride=(1, 1), padding=(1, 1))
      (convf1): Conv2d(1, 128, kernel_size=(7, 7), stride=(1, 1), padding=(3, 3))
      (convf2): Conv2d(128, 64, kernel_size=(3, 3), stride=(1, 1), padding=(1, 1))
      (conv): Conv2d(256, 127, kernel_size=(3, 3), stride=(1, 1), padding=(1, 1))
    )
    (gru): SepConvGRU(
      (convz1): Conv2d(384, 128, kernel_size=(1, 5), stride=(1, 1), padding=(0, 2))
      (convr1): Conv2d(384, 128, kernel_size=(1, 5), stride=(1, 1), padding=(0, 2))
      (convq1): Conv2d(384, 128, kernel_size=(1, 5), stride=(1, 1), padding=(0, 2))
      (convz2): Conv2d(384, 128, kernel_size=(5, 1), stride=(1, 1), padding=(2, 0))
      (convr2): Conv2d(384, 128, kernel_size=(5, 1), stride=(1, 1), padding=(2, 0))
      (convq2): Conv2d(384, 128, kernel_size=(5, 1), stride=(1, 1), padding=(2, 0))
    )
    (flow_head): FlowHead(
      (conv1): Conv2d(128, 256, kernel_size=(3, 3), stride=(1, 1), padding=(1, 1))
      (conv2): Conv2d(256, 1, kernel_size=(3, 3), stride=(1, 1), padding=(1, 1))
      (relu): ReLU(inplace=True)
    )
    (mask): Sequential(
      (0): Conv2d(128, 256, kernel_size=(3, 3), stride=(1, 1), padding=(1, 1))
      (1): ReLU(inplace=True)
      (2): Conv2d(256, 144, kernel_size=(1, 1), stride=(1, 1))
    )
  )
)
=> Number of trainable parameters: 7354416
=> Load checkpoint: pretrained/gmstereo-scale2-regrefine3-resumeflowthings-middleburyfthighres-a82bec03.pth--no_resume_optimizer
Traceback (most recent call last):
  File "/home/godeta/PycharmProjects/LYNRED/Stereo_matching/NeuralNetwork/UniMatch/main_stereo.py", line 614, in <module>
    main(args)
…
-> concat1 = torch.cat(concat0.chunk(chunks=2, dim=0)[::-1], dim=0)
(Pdb) > /home/godeta/PycharmProjects/LYNRED/Stereo_matching/NeuralNetwork/UniMatch/unimatch/transformer.py(274)forward()
-> for i, layer in enumerate(self.layers):
(Pdb) > /home/godeta/PycharmProjects/LYNRED/Stereo_matching/NeuralNetwork/UniMatch/unimatch/transformer.py(275)forward()
-> concat0 = layer(concat0, concat1,
(Pdb) 13_446_361_088
(Pdb) 13_446_361_088
(Pdb) 4
(Pdb) *** AttributeError: 'FeatureTransformer' object has no attribute 'layer'
(Pdb) ModuleList(
  (0): TransformerBlock(
    (self_attn): TransformerLayer(
      (q_proj): Linear(in_features=128, out_features=128, bias=False)
      (k_proj): Linear(in_features=128, out_features=128, bias=False)
      (v_proj): Linear(in_features=128, out_features=128, bias=False)
      (merge): Linear(in_features=128, out_features=128, bias=False)
      (norm1): LayerNorm((128,), eps=1e-05, elementwise_affine=True)
    )
    (cross_attn_ffn): TransformerLayer(
      (q_proj): Linear(in_features=128, out_features=128, bias=False)
      (k_proj): Linear(in_features=128, out_features=128, bias=False)
      (v_proj): Linear(in_features=128, out_features=128, bias=False)
      (merge): Linear(in_features=128, out_features=128, bias=False)
      (norm1): LayerNorm((128,), eps=1e-05, elementwise_affine=True)
      (mlp): Sequential(
        (0): Linear(in_features=256, out_features=1024, bias=False)
        (1): GELU(approximate='none')
        (2): Linear(in_features=1024, out_features=128, bias=False)
      )
      (norm2): LayerNorm((128,), eps=1e-05, elementwise_affine=True)
    )
  )
  (1): TransformerBlock(
    (self_attn): TransformerLayer(
      (q_proj): Linear(in_features=128, out_features=128, bias=False)
      (k_proj): Linear(in_features=128, out_features=128, bias=False)
      (v_proj): Linear(in_features=128, out_features=128, bias=False)
      (merge): Linear(in_features=128, out_features=128, bias=False)
      (norm1): LayerNorm((128,), eps=1e-05, elementwise_affine=True)
    )
    (cross_attn_ffn): TransformerLayer(
      (q_proj): Linear(in_features=128, out_features=128, bias=False)
      (k_proj): Linear(in_features=128, out_features=128, bias=False)
      (v_proj): Linear(in_features=128, out_features=128, bias=False)
      (merge): Linear(in_features=128, out_features=128, bias=False)
      (norm1): LayerNorm((128,), eps=1e-05, elementwise_affine=True)
      (mlp): Sequential(
        (0): Linear(in_features=256, out_features=1024, bias=False)
        (1): GELU(approximate='none')
        (2): Linear(in_features=1024, out_features=128, bias=False)
      )
      (norm2): LayerNorm((128,), eps=1e-05, elementwise_affine=True)
    )
  )
  (2): TransformerBlock(
    (self_attn): TransformerLayer(
      (q_proj): Linear(in_features=128, out_features=128, bias=False)
      (k_proj): Linear(in_features=128, out_features=128, bias=False)
      (v_proj): Linear(in_features=128, out_features=128, bias=False)
      (merge): Linear(in_features=128, out_features=128, bias=False)
      (norm1): LayerNorm((128,), eps=1e-05, elementwise_affine=True)
    )
    (cross_attn_ffn): TransformerLayer(
      (q_proj): Linear(in_features=128, out_features=128, bias=False)
      (k_proj): Linear(in_features=128, out_features=128, bias=False)
      (v_proj): Linear(in_features=128, out_features=128, bias=False)
      (merge): Linear(in_features=128, out_features=128, bias=False)
      (norm1): LayerNorm((128,), eps=1e-05, elementwise_affine=True)
      (mlp): Sequential(
        (0): Linear(in_features=256, out_features=1024, bias=False)
        (1): GELU(approximate='none')
        (2): Linear(in_features=1024, out_features=128, bias=False)
      )
      (norm2): LayerNorm((128,), eps=1e-05, elementwise_affine=True)
    )
  )
  (3): TransformerBlock(
    (self_attn): TransformerLayer(
      (q_proj): Linear(in_features=128, out_features=128, bias=False)
      (k_proj): Linear(in_features=128, out_features=128, bias=False)
      (v_proj): Linear(in_features=128, out_features=128, bias=False)
      (merge): Linear(in_features=128, out_features=128, bias=False)
      (norm1): LayerNorm((128,), eps=1e-05, elementwise_affine=True)
    )
    (cross_attn_ffn): TransformerLayer(
      (q_proj): Linear(in_features=128, out_features=128, bias=False)
      (k_proj): Linear(in_features=128, out_features=128, bias=False)
      (v_proj): Linear(in_features=128, out_features=128, bias=False)
      (merge): Linear(in_features=128, out_features=128, bias=False)
      (norm1): LayerNorm((128,), eps=1e-05, elementwise_affine=True)
      (mlp): Sequential(
        (0): Linear(in_features=256, out_features=1024, bias=False)
        (1): GELU(approximate='none')
        (2): Linear(in_features=1024, out_features=128, bias=False)
      )
      (norm2): LayerNorm((128,), eps=1e-05, elementwise_affine=True)
    )
  )
  (4): TransformerBlock(
    (self_attn): TransformerLayer(
      (q_proj): Linear(in_features=128, out_features=128, bias=False)
      (k_proj): Linear(in_features=128, out_features=128, bias=False)
      (v_proj): Linear(in_features=128, out_features=128, bias=False)
      (merge): Linear(in_features=128, out_features=128, bias=False)
      (norm1): LayerNorm((128,), eps=1e-05, elementwise_affine=True)
    )
    (cross_attn_ffn): TransformerLayer(
      (q_proj): Linear(in_features=128, out_features=128, bias=False)
      (k_proj): Linear(in_features=128, out_features=128, bias=False)
      (v_proj): Linear(in_features=128, out_features=128, bias=False)
      (merge): Linear(in_features=128, out_features=128, bias=False)
      (norm1): LayerNorm((128,), eps=1e-05, elementwise_affine=True)
      (mlp): Sequential(
        (0): Linear(in_features=256, out_features=1024, bias=False)
        (1): GELU(approximate='none')
        (2): Linear(in_features=1024, out_features=128, bias=False)
      )
      (norm2): LayerNorm((128,), eps=1e-05, elementwise_affine=True)
    )
  )
  (5): TransformerBlock(
    (self_attn): TransformerLayer(
      (q_proj): Linear(in_features=128, out_features=128, bias=False)
      (k_proj): Linear(in_features=128, out_features=128, bias=False)
      (v_proj): Linear(in_features=128, out_features=128, bias=False)
      (merge): Linear(in_features=128, out_features=128, bias=False)
      (norm1): LayerNorm((128,), eps=1e-05, elementwise_affine=True)
    )
    (cross_attn_ffn): TransformerLayer(
      (q_proj): Linear(in_features=128, out_features=128, bias=False)
      (k_proj): Linear(in_features=128, out_features=128, bias=False)
      (v_proj): Linear(in_features=128, out_features=128, bias=False)
      (merge): Linear(in_features=128, out_features=128, bias=False)
      (norm1): LayerNorm((128,), eps=1e-05, elementwise_affine=True)
      (mlp): Sequential(
        (0): Linear(in_features=256, out_features=1024, bias=False)
        (1): GELU(approximate='none')
        (2): Linear(in_features=1024, out_features=128, bias=False)
      )
      (norm2): LayerNorm((128,), eps=1e-05, elementwise_affine=True)
    )
  )
)
(Pdb) > /home/godeta/PycharmProjects/LYNRED/Stereo_matching/NeuralNetwork/UniMatch/unimatch/transformer.py(276)forward()
-> height=h,
(Pdb) > /home/godeta/PycharmProjects/LYNRED/Stereo_matching/NeuralNetwork/UniMatch/unimatch/transformer.py(277)forward()
-> width=w,
(Pdb) > /home/godeta/PycharmProjects/LYNRED/Stereo_matching/NeuralNetwork/UniMatch/unimatch/transformer.py(278)forward()
…
/home/godeta/.local/lib/python3.9/site-packages/torch/functional.py:504: UserWarning: torch.meshgrid: in an upcoming release, it will be required to pass the indexing argument. (Triggered internally at ../aten/src/ATen/native/TensorShape.cpp:3190.)
  return _VF.meshgrid(tensors, **kwargs)  # type: ignore[attr-defined]
Falling back to default: all gpus
Current allocated memory: {'cuda:0': 3.916295051574707}  Go
Current reserved memory: {'cuda:0': 7.81640625}  Go
Maximum allocated memory: {'cuda:0': 7.63120174407959}  Go
Maximum reserved memory: {'cuda:0': 7.81640625}  Go
Suggested GPU: 0
72 72 FeatureTransformer(
  (layers): ModuleList(
    (0): TransformerBlock(
      (self_attn): TransformerLayer(
        (q_proj): Linear(in_features=128, out_features=128, bias=False)
        (k_proj): Linear(in_features=128, out_features=128, bias=False)
        (v_proj): Linear(in_features=128, out_features=128, bias=False)
        (merge): Linear(in_features=128, out_features=128, bias=False)
        (norm1): LayerNorm((128,), eps=1e-05, elementwise_affine=True)
      )
      (cross_attn_ffn): TransformerLayer(
        (q_proj): Linear(in_features=128, out_features=128, bias=False)
        (k_proj): Linear(in_features=128, out_features=128, bias=False)
        (v_proj): Linear(in_features=128, out_features=128, bias=False)
        (merge): Linear(in_features=128, out_features=128, bias=False)
        (norm1): LayerNorm((128,), eps=1e-05, elementwise_affine=True)
        (mlp): Sequential(
          (0): Linear(in_features=256, out_features=1024, bias=False)
          (1): GELU(approximate='none')
          (2): Linear(in_features=1024, out_features=128, bias=False)
        )
        (norm2): LayerNorm((128,), eps=1e-05, elementwise_affine=True)
      )
    )
    (1): TransformerBlock(
      (self_attn): TransformerLayer(
        (q_proj): Linear(in_features=128, out_features=128, bias=False)
        (k_proj): Linear(in_features=128, out_features=128, bias=False)
        (v_proj): Linear(in_features=128, out_features=128, bias=False)
        (merge): Linear(in_features=128, out_features=128, bias=False)
        (norm1): LayerNorm((128,), eps=1e-05, elementwise_affine=True)
      )
      (cross_attn_ffn): TransformerLayer(
        (q_proj): Linear(in_features=128, out_features=128, bias=False)
        (k_proj): Linear(in_features=128, out_features=128, bias=False)
        (v_proj): Linear(in_features=128, out_features=128, bias=False)
        (merge): Linear(in_features=128, out_features=128, bias=False)
        (norm1): LayerNorm((128,), eps=1e-05, elementwise_affine=True)
        (mlp): Sequential(
          (0): Linear(in_features=256, out_features=1024, bias=False)
          (1): GELU(approximate='none')
          (2): Linear(in_features=1024, out_features=128, bias=False)
        )
        (norm2): LayerNorm((128,), eps=1e-05, elementwise_affine=True)
      )
    )
    (2): TransformerBlock(
      (self_attn): TransformerLayer(
        (q_proj): Linear(in_features=128, out_features=128, bias=False)
        (k_proj): Linear(in_features=128, out_features=128, bias=False)
        (v_proj): Linear(in_features=128, out_features=128, bias=False)
        (merge): Linear(in_features=128, out_features=128, bias=False)
        (norm1): LayerNorm((128,), eps=1e-05, elementwise_affine=True)
      )
      (cross_attn_ffn): TransformerLayer(
        (q_proj): Linear(in_features=128, out_features=128, bias=False)
        (k_proj): Linear(in_features=128, out_features=128, bias=False)
        (v_proj): Linear(in_features=128, out_features=128, bias=False)
        (merge): Linear(in_features=128, out_features=128, bias=False)
        (norm1): LayerNorm((128,), eps=1e-05, elementwise_affine=True)
        (mlp): Sequential(
          (0): Linear(in_features=256, out_features=1024, bias=False)
          (1): GELU(approximate='none')
          (2): Linear(in_features=1024, out_features=128, bias=False)
        )
        (norm2): LayerNorm((128,), eps=1e-05, elementwise_affine=True)
      )
    )
    (3): TransformerBlock(
      (self_attn): TransformerLayer(
        (q_proj): Linear(in_features=128, out_features=128, bias=False)
        (k_proj): Linear(in_features=128, out_features=128, bias=False)
        (v_proj): Linear(in_features=128, out_features=128, bias=False)
        (merge): Linear(in_features=128, out_features=128, bias=False)
        (norm1): LayerNorm((128,), eps=1e-05, elementwise_affine=True)
      )
      (cross_attn_ffn): TransformerLayer(
        (q_proj): Linear(in_features=128, out_features=128, bias=False)
        (k_proj): Linear(in_features=128, out_features=128, bias=False)
        (v_proj): Linear(in_features=128, out_features=128, bias=False)
        (merge): Linear(in_features=128, out_features=128, bias=False)
        (norm1): LayerNorm((128,), eps=1e-05, elementwise_affine=True)
        (mlp): Sequential(
          (0): Linear(in_features=256, out_features=1024, bias=False)
          (1): GELU(approximate='none')
          (2): Linear(in_features=1024, out_features=128, bias=False)
        )
        (norm2): LayerNorm((128,), eps=1e-05, elementwise_affine=True)
      )
    )
    (4): TransformerBlock(
      (self_attn): TransformerLayer(
        (q_proj): Linear(in_features=128, out_features=128, bias=False)
        (k_proj): Linear(in_features=128, out_features=128, bias=False)
        (v_proj): Linear(in_features=128, out_features=128, bias=False)
        (merge): Linear(in_features=128, out_features=128, bias=False)
        (norm1): LayerNorm((128,), eps=1e-05, elementwise_affine=True)
      )
      (cross_attn_ffn): TransformerLayer(
        (q_proj): Linear(in_features=128, out_features=128, bias=False)
        (k_proj): Linear(in_features=128, out_features=128, bias=False)
        (v_proj): Linear(in_features=128, out_features=128, bias=False)
        (merge): Linear(in_features=128, out_features=128, bias=False)
        (norm1): LayerNorm((128,), eps=1e-05, elementwise_affine=True)
        (mlp): Sequential(
          (0): Linear(in_features=256, out_features=1024, bias=False)
          (1): GELU(approximate='none')
          (2): Linear(in_features=1024, out_features=128, bias=False)
        )
        (norm2): LayerNorm((128,), eps=1e-05, elementwise_affine=True)
      )
    )
    (5): TransformerBlock(
      (self_attn): TransformerLayer(
        (q_proj): Linear(in_features=128, out_features=128, bias=False)
        (k_proj): Linear(in_features=128, out_features=128, bias=False)
        (v_proj): Linear(in_features=128, out_features=128, bias=False)
        (merge): Linear(in_features=128, out_features=128, bias=False)
        (norm1): LayerNorm((128,), eps=1e-05, elementwise_affine=True)
      )
      (cross_attn_ffn): TransformerLayer(
        (q_proj): Linear(in_features=128, out_features=128, bias=False)
        (k_proj): Linear(in_features=128, out_features=128, bias=False)
        (v_proj): Linear(in_features=128, out_features=128, bias=False)
        (merge): Linear(in_features=128, out_features=128, bias=False)
        (norm1): LayerNorm((128,), eps=1e-05, elementwise_affine=True)
        (mlp): Sequential(
          (0): Linear(in_features=256, out_features=1024, bias=False)
          (1): GELU(approximate='none')
          (2): Linear(in_features=1024, out_features=128, bias=False)
        )
        (norm2): LayerNorm((128,), eps=1e-05, elementwise_affine=True)
      )
    )
  )
)
Falling back to default: all gpus
Current allocated memory: {'cuda:0': 11.461957454681396}  Go
Current reserved memory: {'cuda:0': 11.578125}  Go
Maximum allocated memory: {'cuda:0': 11.567426681518555}  Go
Maximum reserved memory: {'cuda:0': 11.68359375}  Go
Suggested GPU: 0
72 72 FeatureTransformer(
  (layers): ModuleList(
    (0): TransformerBlock(
      (self_attn): TransformerLayer(
        (q_proj): Linear(in_features=128, out_features=128, bias=False)
        (k_proj): Linear(in_features=128, out_features=128, bias=False)
        (v_proj): Linear(in_features=128, out_features=128, bias=False)
        (merge): Linear(in_features=128, out_features=128, bias=False)
        (norm1): LayerNorm((128,), eps=1e-05, elementwise_affine=True)
      )
      (cross_attn_ffn): TransformerLayer(
        (q_proj): Linear(in_features=128, out_features=128, bias=False)
        (k_proj): Linear(in_features=128, out_features=128, bias=False)
        (v_proj): Linear(in_features=128, out_features=128, bias=False)
        (merge): Linear(in_features=128, out_features=128, bias=False)
        (norm1): LayerNorm((128,), eps=1e-05, elementwise_affine=True)
        (mlp): Sequential(
          (0): Linear(in_features=256, out_features=1024, bias=False)
          (1): GELU(approximate='none')
          (2): Linear(in_features=1024, out_features=128, bias=False)
        )
        (norm2): LayerNorm((128,), eps=1e-05, elementwise_affine=True)
      )
    )
    (1): TransformerBlock(
      (self_attn): TransformerLayer(
        (q_proj): Linear(in_features=128, out_features=128, bias=False)
        (k_proj): Linear(in_features=128, out_features=128, bias=False)
        (v_proj): Linear(in_features=128, out_features=128, bias=False)
        (merge): Linear(in_features=128, out_features=128, bias=False)
        (norm1): LayerNorm((128,), eps=1e-05, elementwise_affine=True)
      )
      (cross_attn_ffn): TransformerLayer(
        (q_proj): Linear(in_features=128, out_features=128, bias=False)
        (k_proj): Linear(in_features=128, out_features=128, bias=False)
        (v_proj): Linear(in_features=128, out_features=128, bias=False)
        (merge): Linear(in_features=128, out_features=128, bias=False)
        (norm1): LayerNorm((128,), eps=1e-05, elementwise_affine=True)
        (mlp): Sequential(
          (0): Linear(in_features=256, out_features=1024, bias=False)
          (1): GELU(approximate='none')
          (2): Linear(in_features=1024, out_features=128, bias=False)
        )
        (norm2): LayerNorm((128,), eps=1e-05, elementwise_affine=True)
      )
    )
    (2): TransformerBlock(
      (self_attn): TransformerLayer(
        (q_proj): Linear(in_features=128, out_features=128, bias=False)
        (k_proj): Linear(in_features=128, out_features=128, bias=False)
        (v_proj): Linear(in_features=128, out_features=128, bias=False)
        (merge): Linear(in_features=128, out_features=128, bias=False)
        (norm1): LayerNorm((128,), eps=1e-05, elementwise_affine=True)
      )
      (cross_attn_ffn): TransformerLayer(
        (q_proj): Linear(in_features=128, out_features=128, bias=False)
        (k_proj): Linear(in_features=128, out_features=128, bias=False)
        (v_proj): Linear(in_features=128, out_features=128, bias=False)
        (merge): Linear(in_features=128, out_features=128, bias=False)
        (norm1): LayerNorm((128,), eps=1e-05, elementwise_affine=True)
        (mlp): Sequential(
          (0): Linear(in_features=256, out_features=1024, bias=False)
          (1): GELU(approximate='none')
          (2): Linear(in_features=1024, out_features=128, bias=False)
        )
        (norm2): LayerNorm((128,), eps=1e-05, elementwise_affine=True)
      )
    )
    (3): TransformerBlock(
      (self_attn): TransformerLayer(
        (q_proj): Linear(in_features=128, out_features=128, bias=False)
        (k_proj): Linear(in_features=128, out_features=128, bias=False)
        (v_proj): Linear(in_features=128, out_features=128, bias=False)
        (merge): Linear(in_features=128, out_features=128, bias=False)
        (norm1): LayerNorm((128,), eps=1e-05, elementwise_affine=True)
      )
      (cross_attn_ffn): TransformerLayer(
        (q_proj): Linear(in_features=128, out_features=128, bias=False)
        (k_proj): Linear(in_features=128, out_features=128, bias=False)
        (v_proj): Linear(in_features=128, out_features=128, bias=False)
        (merge): Linear(in_features=128, out_features=128, bias=False)
        (norm1): LayerNorm((128,), eps=1e-05, elementwise_affine=True)
        (mlp): Sequential(
          (0): Linear(in_features=256, out_features=1024, bias=False)
          (1): GELU(approximate='none')
          (2): Linear(in_features=1024, out_features=128, bias=False)
        )
        (norm2): LayerNorm((128,), eps=1e-05, elementwise_affine=True)
      )
    )
    (4): TransformerBlock(
      (self_attn): TransformerLayer(
        (q_proj): Linear(in_features=128, out_features=128, bias=False)
        (k_proj): Linear(in_features=128, out_features=128, bias=False)
        (v_proj): Linear(in_features=128, out_features=128, bias=False)
        (merge): Linear(in_features=128, out_features=128, bias=False)
        (norm1): LayerNorm((128,), eps=1e-05, elementwise_affine=True)
      )
      (cross_attn_ffn): TransformerLayer(
        (q_proj): Linear(in_features=128, out_features=128, bias=False)
        (k_proj): Linear(in_features=128, out_features=128, bias=False)
        (v_proj): Linear(in_features=128, out_features=128, bias=False)
        (merge): Linear(in_features=128, out_features=128, bias=False)
        (norm1): LayerNorm((128,), eps=1e-05, elementwise_affine=True)
        (mlp): Sequential(
          (0): Linear(in_features=256, out_features=1024, bias=False)
          (1): GELU(approximate='none')
          (2): Linear(in_features=1024, out_features=128, bias=False)
        )
        (norm2): LayerNorm((128,), eps=1e-05, elementwise_affine=True)
      )
    )
    (5): TransformerBlock(
      (self_attn): TransformerLayer(
        (q_proj): Linear(in_features=128, out_features=128, bias=False)
        (k_proj): Linear(in_features=128, out_features=128, bias=False)
        (v_proj): Linear(in_features=128, out_features=128, bias=False)
        (merge): Linear(in_features=128, out_features=128, bias=False)
        (norm1): LayerNorm((128,), eps=1e-05, elementwise_affine=True)
      )
      (cross_attn_ffn): TransformerLayer(
        (q_proj): Linear(in_features=128, out_features=128, bias=False)
        (k_proj): Linear(in_features=128, out_features=128, bias=False)
        (v_proj): Linear(in_features=128, out_features=128, bias=False)
        (merge): Linear(in_features=128, out_features=128, bias=False)
        (norm1): LayerNorm((128,), eps=1e-05, elementwise_affine=True)
        (mlp): Sequential(
          (0): Linear(in_features=256, out_features=1024, bias=False)
          (1): GELU(approximate='none')
          (2): Linear(in_features=1024, out_features=128, bias=False)
        )
        (norm2): LayerNorm((128,), eps=1e-05, elementwise_affine=True)
      )
    )
  )
)
Traceback (most recent call last):
  File "/home/godeta/PycharmProjects/LYNRED/Stereo_matching/NeuralNetwork/UniMatch/main_stereo.py", line 614, in <module>
    main(args)
  File "/home/godeta/PycharmProjects/LYNRED/Stereo_matching/NeuralNetwork/UniMatch/main_stereo.py", line 408, in main
    pred_disps = model(left, right,
  File "/home/godeta/.local/lib/python3.9/site-packages/torch/nn/modules/module.py", line 1194, in _call_impl
…
